Back-end/skin.tflite (tflite, 734892 bytes, 14 tensors)

dense_2/bias f4 [7]
0.018299144 0.12307754 0.23514068 0.024467157 -0.1737712 -0.07208818 -0.15231726
00000000: 16e8 953c 1410 fc3d b8c8 703e 596f c83c
00000010: 14f1 31be f8a2 93bd 0ef9 1bbe

dense_1/bias f4 [32]
0.21853426 0.077314034 -0.18348153 -0.13414378 -0.1754485 0.23222458 0.247623 0.12360045
-0.038220584 -0.19158486 0.08045758 -0.05839281 -0.1840151 0.1295612 -0.11911201 0.15377802
0.09336275 0.033954453 0.21464938 -0.008550177 0.10739639 0.020275112 -0.04632715 0.100849845
0.13463135 0.07270649 -0.02570505 0.10902873 -0.0017473313 0.07537901 -0.037159603 0.09017861
00000000: 72c7 5f3e d256 9e3d 95e2 3bbe fd5c 09be
00000010: c6a8 33be 48cc 6d3e e290 7d3e 3c22 fd3d
00000020: 308d 1cbd d22e 44be f2c6 a43d 4d2d 6fbd
00000030: 746e 3cbe b1ab 043e fff0 f3bd fc77 1d3e
00000040: f834 bf3d d313 0b3d 0ccd 5b3e 0b16 0cbc
00000050: a3f2 db3d fe17 a63c 8ac1 3dbd 5d8a ce3d
00000060: cddc 093e 24e7 943d 6693 d2bc 744a df3d
00000070: b606 e5ba 4f60 9a3d ab34 18bd 90af b83d

dense/bias f4 [64]
0.1165772 -0.0014673113 -0.02317081 -0.026655152 -0.036069874 0.07427755 -0.18089259 -0.0060605844
-0.033973366 -0.07924591 -0.08351436 -0.18465593 -0.24111065 0.008619537 -0.018740173 -0.0125078885
-0.18178843 0.15112995 0.21002582 -0.020554867 0.018060133 -0.0063839545 -0.011498521 0.030680727
0.067755625 -0.027989503 -0.023223115 -0.09051021 -0.003695735 -0.007849753 -0.13997549 -0.12296515
-0.038851224 -0.0143062 0.1388403 -0.071442306 -0.016416872 -0.016092313 -0.025259878 -0.010450385
-0.06702614 0.16392744 -0.08754555 -0.042687375 -0.009173132 0.077762485 -0.11150755 0.25037757
0.027080001 -0.05396379 -0.20762637 -0.0044493815 0.13634673 -0.007793153 0.096281216 -0.006570908
0.043580476 0.035458855 -0.020164276 0.1796719 -0.036253046 -0.009553871 -0.004589591 -0.017408852
00000000: 07c0 ee3d cc52 c0ba b6d0 bdbc e85b dabc
00000010: 01be 13bd d41e 983d e83b 39be de97 c6bb
00000020: a827 0bbd ae4b a2bd 9409 abbd 7216 3dbe
00000030: b6e5 76be f538 0d3c fe84 99bc e3ed 4cbc
00000040: bf26 3abe cfc1 1a3e 0211 573e ae62 a8bc
00000050: d8f2 933c 7e30 d1bb 4b64 3cbc 2656 fb3c
00000060: 76c3 8a3d 3e4a e5bc 673e bebc 6b5d b9bd
00000070: 2534 72bb 409c 00bc bc55 0fbe 27d5 fbbd
00000080: 7622 1fbd 8d64 6abc 272c 0e3e 5850 92bd
00000090: ad7c 86bc 07d4 83bc ceed cebc 1738 2bbc
000000a0: 0045 89bd 98dc 273e 154b b3bd f5d8 2ebd
000000b0: e74a 16bc f041 9f3d 125e e4bd 7d31 803e
000000c0: e1d6 dd3c 2309 5dbd 029c 54be 1ecc 91bb
000000d0: 7a9e 0b3e b55d ffbb 162f c53d c550 d7bb
000000e0: 7181 323d 4e3d 113d 8d2f a5bc e9fb 373e
000000f0: 137e 14bd d787 1cbc 4864 96bb 029d 8ebc

conv2d_3/bias f4 [64]
0.03500875 -0.0133029865 0.10619225 0.13786024 0.123607345 0.24340412 0.15631789 0.06961532
-0.17489834 -0.17456807 -0.1174124 -0.07928054 0.16247374 -0.2370877 -0.19715512 -0.013327129
0.13992453 0.12641299 0.07744625 -0.048690815 -0.01716409 -0.032075427 0.018635785 0.16713618
-0.1277455 -0.21233493 0.0959625 0.093486555 0.18616502 -0.1328762 -0.24392252 -0.056611758
-0.038086675 -0.034365766 0.08186011 -0.22686712 0.037625328 0.01666892 -0.23955436 0.11441313
-0.009683339 0.13330045 -0.073969275 0.1217318 0.1581306 -0.15048896 -0.046465494 0.101339296
0.09274091 -0.27562717 -0.028067483 0.053346824 0.15279198 -0.011039486 -0.06207287 0.13133901
0.14038563 -0.2129263 -0.118559696 0.13359061 -0.16407777 0.0828063 0.062552 -0.019093962
00000000: 5665 0f3d c5f4 59bc 537b d93d 3c2b 0d3e
00000010: d925 fd3d ee3e 793e cc11 203e 7a92 8e3d
00000020: 8d18 33be f9c1 32be ea75 f0bd d65d a2bd
00000030: 845f 263e 1ec7 72be 08e3 49be 085a 5abc
00000040: 6048 0f3e 6872 013e 249c 9e3d 0570 47bd
00000050: b59b 8cbc 8661 03bd 13aa 983c bf25 2b3e
00000060: b7cf 02be 546e 59be fd87 c43d e175 bf3d
00000070: 0ba2 3e3e b310 08be d3c6 79be bbe1 67bd
00000080: c600 1cbd 1ec3 0cbd 46a6 a73d db4f 68be
00000090: 041d 1a3d 428d 883c bd4d 75be 6e51 ea3d
000000a0: dea6 1ebc ea7f 083e 347d 97bd 864e f93d
000000b0: fdec 213e c719 1abe 9a52 3ebd fa8a cf3d
000000c0: f2ee bd3d 011f 8dbe c7ed e5bc 3382 5a3d
000000d0: 8075 1c3e f6de 34bc 1f40 7ebd bc7d 063e
000000e0: 40c1 0f3e 5a09 5abe 6dcf f2bd facb 083e
000000f0: 0104 28be 5996 a93d 431b 803d f16a 9cbc

conv2d_2/bias f4 [32]
0.15395708 -0.18502216 0.12345069 -0.039518517 0.07759764 -0.074907415 0.12118058 -0.06332053
0.17771864 -0.14804628 -0.05176432 0.04943276 -0.110028386 -0.03232681 -0.03430361 0.057321157
0.1415543 -0.11122583 0.052696943 0.081443526 0.033273127 0.24218991 -0.26372704 -0.2520648
0.17400518 -0.0057349885 0.12014779 0.06962533 -0.048466623 -0.11554804 0.009079236 0.096257664
00000000: eda6 1d3e 7376 3dbe b7d3 fc3d 2bde 21bd
00000010: 83eb 9e3d 0f69 99bd 862d f83d 32ae 81bd
00000020: e0fb 353e 7299 17be d306 54bd 017a 4a3d
00000030: 9056 e1bd 1e69 04bd f181 0cbd 97c9 6a3d
00000040: 9cf3 103e 5eca e3bd c0d8 573d ddcb a63d
00000050: 6749 083d a200 783e 3b07 87be a30e 81be
00000060: 6a2e 323e 92ec bbbb 0b10 f63d ba97 8e3d
00000070: f084 46bd 73a4 ecbd 13c1 143c bd22 c53d

conv2d_1/bias f4 [32]
0.22869565 -0.1158555 0.094368346 0.062046204 0.064048745 -0.0961335 0.11434784 0.04317873
0.15840676 -0.18002287 -0.11655579 -0.051674213 0.20696194 0.09788256 -0.2629413 -0.12007967
-0.024216535 -0.26639262 0.14895755 0.20047666 0.1635569 -0.1647616 0.070379436 -0.21946006
-0.11658908 0.17060374 0.07410791 -0.0387388 0.1544949 -0.22321767 0.09889852 -0.29326218
00000000: 312f 6a3e a645 edbd 3144 c13d 2924 7e3d
00000010: fd2b 833d a4e1 c4bd 332f ea3d 2edc 303d
00000020: 6235 223e ea57 38be cdb4 eebd 57a8 53bd
00000030: d5ed 533e a776 c83d 3ea0 86be 54ec f5bd
00000040: c161 c6bc 9d64 88be 5488 183e c149 4d3e
00000050: 767b 273e 44b7 28be 1823 903d 23ba 60be
00000060: 41c6 eebd bfb2 2e3e e3c5 973d 93ac 1ebd
00000070: e933 1e3e 2c93 64be 4f8b ca3d 7626 96be

conv2d/bias f4 [16]
0.1172425 0.053494595 0.03193875 -0.18248074 -0.06865213 0.18862334 0.2045169 0.057078928
-0.09158469 -0.10146187 -0.032069962 -0.12680161 -0.16981106 -0.08740115 0.21834967 0.017852092
00000000: d61c f03d 261d 5b3d 35d2 023d 3bdc 3abe
00000010: 7d99 8cbd 7a26 413e e16c 513e 98cb 693d
00000020: c190 bbbd 3ecb cfbd cb5b 03bd 48d8 01be
00000030: f3e2 2dbe 60ff b2bd 0e97 5f3e 8d3e 923c

sequential/dense/MatMul f4 [64, 2304]
0.031054957 0.07786964 -0.0037593048 0.05313142 -0.024460312 -0.043739006 0.044249006 0.029135754
-0.094895296 0.023780642 -0.25374874 -0.076030545 -0.048529338 -0.12212443 -0.10065985 0.14130361
0.04944545 -0.17588066 -0.005788289 -0.16138329 -0.07781744 0.08456055 -0.009995115 0.0458405
-0.028254412 -0.11531259 0.040654685 -0.08620666 -0.008022844 0.07206761 -0.03567025 -0.19551927
0.0139736775 -0.06790909 -0.004964596 0.036846828 -0.03811427 -0.041235007 -0.12568511 0.17120005
-0.038106363 0.0404183 -0.20718168 -0.022855716 0.038822364 -0.035248313 -0.22847316 0.018478079
-0.06718988 -0.1007289 -0.07047291 0.060032744 0.14611036 0.103233926 -0.08020954 0.031879503
0.0029823876 0.14606726 0.1097407 -0.1238666 -0.018005433 -0.08889958 -0.0016549536 -0.061391808
-0.13415168 -0.069754556 0.07109983 0.013172708 0.079381466 0.012792832 0.083072685 -0.09764067
-0.02067609 -0.21443787 0.02965482 -0.16693719 0.094530754 0.02481512 -0.12993234 0.1709278
0.07164968 -0.11543908 0.05425096 0.010996784 -0.02484609 0.0019374819 0.035851657 -0.035284728
-0.088263825 -0.041629784 0.00015524306 -0.006468517 0.054789573 -0.119603395 -0.11987149 -0.16186735
0.04433578 -0.19563858 0.026517117 -0.18224266 -0.051393624 0.34684312 -0.20062283 0.21740985
-0.046878554 0.12830299 -0.08207787 -0.037581954 -0.08007202 0.054141227 -0.22703698 0.085810594
-0.032238703 0.05944294 0.05757004 0.10191637 0.13251708 0.12053026 0.07620256 -0.018168408
-0.09822768 0.08308493 -0.16392101 -0.027207082 -0.1079816 0.01807949 -0.09428613 2.6475056e-05
-0.108079545 -0.06505847 -0.050300106 0.029872654 -0.06066866 0.02413285 0.06133672 0.08079576
-0.057767086 -0.097283766 -0.042407222 -0.10238289 0.07225786 -0.082225375 -0.12864742 -0.010852278
0.09577451 0.16412842 0.22919396 0.13425961 -0.16055161 -0.1329338 -0.0029894402 -0.09318791
0.09244479 0.07555058 0.06667502 -0.033096224 0.053070772 -0.14989917 -0.06647193 0.043967832
0.052458763 -0.07030727 0.09554099 0.0002523255 0.04035837 0.09574448 0.0034010173 0.029789736
-0.030806683 -0.01243399 -0.14070587 0.05067814 -0.029758228 0.0071447017 -0.06268225 -0.010010253
0.20772845 -0.024848796 0.058083866 -0.14700086 0.010900614 0.11302856 0.13096167 -0.10721614
0.0052480064 -0.020515203 -0.042466197 0.11042746 0.0044424394 -0.093695275 0.037319962 -0.16636786
0.22187424 -0.088751465 0.023277648 -0.08679562 0.026578924 0.009558316 0.08335818 0.077484995
-0.16978848 0.13649246 0.026390359 -0.1449764 -0.048125885 -0.08234167 -0.048568174 -0.044203572
-0.104353026 -0.07642292 -0.019394679 0.101533756 0.06185995 -0.02640609 -0.042170066 -0.010485085
-0.05175178 -0.05547575 -0.04482481 -0.038411442 0.06870181 -0.11024534 0.036007576 0.07331882
-0.21788529 -0.11303528 0.09393903 -0.029136118 -0.083253875 -0.0797122 -0.06658896 -0.0050604334
-0.18754557 -0.12869562 -0.0002613789 -0.043704987 0.037919402 -0.11292934 -0.20575921 -0.12031425
-0.0007773964 -0.06837116 -0.31924832 -0.0407799 -0.019406721 0.13982035 -0.11029129 -0.004429126
0.11746673 -0.111451715 -0.043842338 0.118413314 0.018914066 -0.06802945 -0.04744311 -0.020924367
00000000: f766 fe3c 1e7a 9f3d ab5e 76bb 55a0 593d
00000010: fe60 c8bc ac27 33bd 723e 353d 1bae ee3c
00000020: 7758 c2bd 9fcf c23c 5beb 81be e7b5 9bbd
00000030: b3c6 46bd 601c fabd c026 cebd e5b1 103e
00000040: 5087 4a3d 0f1a 34be b0ab bdbb a941 25be
00000050: c05e 9fbd 152e ad3d 8dc2 23bc 40c3 3b3d
00000060: cc75 e7bc 0229 ecbd 8785 263d 1e8d b0bd
00000070: 3f72 03bc 2f98 933d f81a 12bd 3436 48be
00000080: daf1 643c ec13 8bbd 0dae a2bb b3ec 163d
00000090: b51d 1cbd 0ae6 28bd 99b3 00be 114f 2f3e
000000a0: 6b15 1cbd a98d 253d 6f27 54be e93b bbbc
000000b0: 3304 1f3d 8960 10bd def4 69be 575f 973c
000000c0: d99a 89bd f44a cebd 1a54 90bd e5e4 753d
000000d0: f49d 153e 4f6c d33d e644 a4bd 1594 023d
000000e0: 2974 433b a892 153e bbbf e03d c6ad fdbd
000000f0: 2180 93bc fc10 b6bd 07eb d8ba fa75 7bbd
00000100: 0f5f 09be 7adb 8ebd ca9c 913d 58d2 573c
00000110: c092 a23d 0799 513c 0322 aa3d d5f7 c7bd
00000120: e760 a9bc 9a95 5bbe aaee f23c 95f1 2abe
00000130: 5799 c13d 1449 cb3c fc0c 05be b207 2f3e
00000140: 11bd 923d 536b ecbd 4136 5e3d db2b 343c
00000150: 078a cbbc 1bf3 fd3a 30d9 123d b886 10bd
00000160: aac3 b4bd fe83 2abd bec8 2239 daf5 d3bb
00000170: 086b 603d a0f2 f4bd 2f7f f5bd 8ec0 25be
00000180: 6f99 353d 7b55 48be 6d3a d93c d29d 3abe
00000190: 1f82 52bd 6c95 b13e 1270 4dbe b0a0 5e3e
000001a0: ba03 40bd dc61 033e 7118 a8bd 89ef 19bd
000001b0: cdfc a3bd 31c3 5d3d 627c 68be 77bd af3d
000001c0: bb0c 04bd 717a 733d 90ce 6b3d 88b9 d03d
000001d0: 8fb2 073e 92d8 f63d 1610 9c3d ead5 94bc
000001e0: 982b c9bd 6f28 aa3d e9da 27be 63e1 debc
000001f0: 7525 ddbd 701b 943c 1619 c1bd c016 de37
00000200: cf58 ddbd 603d 85bd 7c07 4ebd 7fb7 f43c
00000210: b37f 78bd 41b2 c53c 363c 7b3d 3f78 a53d
00000220: 2e9d 6cbd b63c c7bd 32b3 2dbd 1fae d1bd
00000230: eefb 933d c765 a8bd 26bc 03be c1cd 31bc
00000240: 6d25 c43d 4811 283e d2b1 6a3e 5a7b 093e
00000250: a467 24be cc1f 08be 7cea 43bb 4ed9 bebd
00000260: b253 bd3d 43ba 9a3d ea8c 883d e88f 07bd
00000270: bd60 593d 2b7f 19be 6f22 88bd 9d17 343d
00000280: 00df 563d 42fd 8fbd ffaa c33d 8e4a 8439
00000290: d14e 253d af15 c43d 9ae3 5e3b 9b09 f43c
000002a0: 4c5e fcbc efb7 4bbc 3315 10be e293 4f3d
000002b0: 87c7 f3bc 1a1e ea3b 8d5f 80bd 0b02 24bc
000002c0: c4b6 543e b48f cbbc 59e9 6d3d 6587 16be
000002d0: 7d98 323c 857b e73d d11a 063e 2394 dbbd
000002e0: 78f7 ab3b 800f a8bc 09f1 2dbd cb27 e23d
000002f0: e291 913b 4fe3 bfbd d1dc 183d 565c 2abe
00000300: 0033 633e 54c3 b5bd c4b0 be3c e7c1 b1bd
00000310: 0bbc d93c 7c9a 1c3c b2b7 aa3d 74b0 9e3d
00000320: 08dd 2dbe aec4 0b3e 9830 d83c b274 14be
00000330: a61f 45bd c0a2 a8bd 6cef 46bd ce0e 35bd
00000340: 0ab7 d5bd 9f83 9cbd 97e1 9ebc eef0 cf3d
00000350: dc60 7d3d 9651 d8bc 85ba 2cbd a2c9 2bbc
00000360: adf9 53bd 8a3a 63bd 389a 37bd 5155 1dbd
00000370: 89b3 8c3d 4fc8 e1bd ae7c 133d 2d28 963d
00000380: 521d 5fbe 0a7f e7bd 1b63 c03d deae eebc
00000390: 0281 aabd 2640 a3bd cb5f 88bd fed1 a5bb
000003a0: f20b 40be c9c8 03be af09 89b9 0004 33bd
000003b0: 6051 1b3d 7f47 e7bd 8bb2 52be 5167 f6bd
000003c0: 30ca 4bba 2e06 8cbd 8474 a3be d308 27bd
000003d0: d8fa 9ebc 112d 0f3e 66e0 e1bd 3422 91bb
000003e0: 6692 f03d cc40 e4bd 0694 33bd ae82 f23d
000003f0: acf1 9a3c 0653 8bbd b553 42bd 9469 abbc

sequential/dense_1/MatMul f4 [32, 64]
-0.09563511 -0.1382453 -0.052626226 -0.08564939 0.05403783 -0.19426017 -0.060286894 0.097154535
0.22091682 -0.26412067 -0.09533341 -0.077470586 -0.025480349 -0.32474858 -0.14317173 0.17023645
-0.09055704 0.33987555 -0.12718773 0.08254582 0.11007731 -0.013496994 -0.24567492 0.16846728
0.19037785 -0.05748007 -0.09139983 0.17286272 0.033262253 0.16851419 -0.21179907 -0.21681553
0.25686407 -0.105558306 0.10555363 -0.18252954 0.17441444 -0.03865985 0.049500633 0.1685231
0.11174632 0.055473056 -0.051394716 -0.08983225 -0.10896185 0.04932494 0.0019226697 0.18305846
-0.17702037 0.13341905 0.08248341 0.04842305 0.15883918 0.13469143 0.23212856 -0.1066296
-0.058516216 0.037975285 -0.0005684024 0.05166647 -0.037787654 -0.07721958 -0.23977621 0.22992608
-0.22307761 0.082542054 0.033272643 0.1293285 0.050497133 -0.04683679 -0.2500591 0.023181312
-0.16189209 -0.124626994 0.10840137 -0.2183138 0.043154024 -0.27895787 -0.13662851 0.062163558
0.036384705 0.12734884 0.09338056 -0.019667132 -0.19065954 -0.083883174 -0.22554554 0.100099355
0.27570274 -0.3630881 0.017509636 0.009450516 0.21434675 0.198347 -0.11689895 -0.26431978
0.3190136 0.0908503 -0.1772182 -0.3387842 -0.144723 0.20296465 0.058943674 0.0323831
0.09776879 0.24328856 0.27584544 0.09087676 0.17288624 -0.10216999 -0.06912144 0.054625757
-0.050056323 0.26411718 0.17848824 -0.0438019 0.1910466 0.141092 -0.017954338 0.08409909
-0.28325152 -0.084269345 0.20924288 0.1476585 -0.11125144 0.24263808 -0.06314123 0.059249632
-0.23212549 -0.21475762 0.1588643 0.08266771 0.0441012 -0.046416678 0.11621914 -0.2443514
0.14290941 0.08387767 0.23665506 0.03665358 -0.09663843 0.16620378 0.14572135 -0.014965773
0.24941981 -0.011357822 -0.04133188 0.12642723 -0.16511692 0.24345258 0.17209217 -0.27215758
-0.16740066 0.1736786 0.010622333 0.24595031 -0.10686247 0.18796903 0.28102845 0.19537279
0.38319784 -0.10995619 -0.31822932 -0.24164484 0.04323114 -0.09870681 0.00923846 -0.09144266
0.016805021 -0.23204385 0.13358183 -0.12557265 -0.12816663 -0.07677228 -0.34682974 -0.049371313
-0.117653 0.08474658 0.17232876 -0.04927757 0.040057592 -0.15057887 -0.19366388 -0.2308787
0.25321665 -0.05039937 -0.19196486 0.22132213 0.07874516 -0.2462783 -0.02969892 -0.04516991
-0.117234245 0.1720665 -0.100491345 0.08456324 -0.260478 0.23088215 0.06113635 -0.0860878
-0.11831222 0.2470972 -0.11853578 -0.32343557 0.21908149 -0.1047108 -0.23472928 0.19550109
0.13348003 -0.28437978 -0.24414146 0.09646959 -0.06809688 -0.23952407 -0.16821155 0.026025277
0.1925864 0.03506884 -0.17301714 -0.10532957 0.071844235 0.06012827 0.1804712 0.12421118
0.20582148 -0.13162199 0.29349017 0.036837265 -0.18794529 -0.16141194 -0.27931273 0.013158426
0.21327111 -0.052579407 0.017801907 -0.027364397 0.010751193 -0.018670324 0.241682 -0.07294266
-0.011884752 0.1337669 -0.33502212 -0.19980018 0.2980084 0.1321013 0.041549727 -0.24371666
0.18796615 -0.23010838 0.028049737 -0.09567405 0.3024482 0.15170228 0.09027657 -0.023783224
00000000: 57dc c3bd 2d90 0dbe 998e 57bd f368 afbd
00000010: c656 5d3d 23ec 46be 64ef 76bd f5f8 c63d
00000020: 0538 623e d33a 87be 2a3e c3bd e6a8 9ebd
00000030: 2abc d0bc 7245 a6be 9c9b 12be 7752 2e3e
00000040: f875 b9bd 2b04 ae3e 803d 02be c80d a93d
00000050: 3670 e13d 7f22 5dbc 3592 7bbe b082 2c3e
00000060: 69f2 423e 3970 6bbd d62f bbbd ed02 313e
00000070: 003e 083d fc8e 2c3e dbe1 58be e404 5ebe
00000080: b083 833e f42e d8bd 802c d83d 06e9 3abe
00000090: b399 323e ca59 1ebd 2dc1 4a3d 5291 2c3e
000000a0: 41db e43d b737 633d 4483 52bd f8f9 b7bd
000000b0: 6427 dfbd f308 4a3d 1702 fc3a ad73 3b3e
000000c0: d444 35be 019f 083e 10ed a83d 4057 463d
000000d0: bda6 223e 8dec 093e 1cb3 6d3e 9f60 dabd
000000e0: b3ae 6fbd f98b 1b3d d700 15ba 38a0 533d
000000f0: 3ac7 1abd 4d25 9ebd e587 75be be71 6b3e
00000100: 756e 64be cf0b a93d e548 083d b16e 043e
00000110: 15d6 4e3d efd7 3fbd bf07 80be bce6 bd3c
00000120: 0ac7 25be 703c ffbd 8a01 de3d a78d 5fbe
00000130: 46c2 303d 91d3 8ebe 58e8 0bbe 379f 7e3d
00000140: 2108 153d bc67 023e 4f3e bf3d f71c a1bc
00000150: 413c 43be f1ca abbd 69f5 66be e400 cd3d
00000160: e928 8d3e afe6 b9be 5e70 8f3c 56d6 1a3c
00000170: b77d 5b3e 7a1b 4b3e b768 efbd ec54 87be
00000180: c055 a33e b90f ba3d b078 35be 1f75 adbe
00000190: 4432 14be f7d5 4f3e ec6e 713d 24a4 043d
000001a0: 013b c83d a320 793e 9d3b 8d3e 981d ba3d
000001b0: 1709 313e 803e d1bd 8b8f 8dbd 42bf 5f3d
000001c0: dc07 4dbd 5e3a 873e 9fc5 363e 9f69 33bd
000001d0: b8a1 433e 6c7a 103e fa14 93bc 253c ac3d
000001e0: 5806 91be 6895 acbd c443 563e ca33 173e
000001f0: ccd7 e3bd 1e76 783e 3050 81bd beaf 723d
00000200: 4eb2 6dbe 6ce9 5bbe 53ad 223e b04d a93d
00000210: 76a3 343d 6a1f 3ebd 4d04 ee3d 4137 7abe
00000220: d856 123e 0ec8 ab3d b455 723e 1022 163d
00000230: 5fea c5bd 5331 2a3e fa37 153e 0033 75bc
00000240: e867 7f3e 2916 3abc 9e4b 29bd 2476 013e
00000250: 6914 29be a24b 793e ee38 303e 3d58 8bbe
00000260: 146b 2bbe ced8 313e 4b09 2e3c 66da 7b3e
00000270: b6da dabd f47a 403e f6e2 8f3e ce0f 483e
00000280: 8232 c43e b630 e1bd f4ee a2be bf71 77be
00000290: 2313 313d cc26 cabd e95c 173c 4a46 bbbd
000002a0: afaa 893c e79c 6dbe adc9 083e 1e96 00be
000002b0: 1d3e 03be c93a 9dbd ab93 b1be 9339 4abd
000002c0: 0ef4 f0bd 9d8f ad3d f376 303e 47d7 49bd
000002d0: 6e13 243d 5931 1abe d34f 46be 776b 6cbe
000002e0: 9da5 813e 926f 4ebd 7092 44be 45a2 623e
000002f0: 2445 a13d 6130 7cbe 264b f3bc 1504 39bd
00000300: 8218 f0bd 3332 303e 68ce cdbd 7e2f ad3d
00000310: 5f5d 85be 5f6c 6c3e 1c6a 7a3d cd4e b0bd
00000320: ad4d f2bd 0c07 7d3e e3c2 f2bd 5999 a5be
00000330: e656 603e 9e72 d6bd df5c 70be 7031 483e
00000340: fdae 083e 3a9a 91be 3800 7abe d991 c53d
00000350: 6176 8bbd cc45 75be a63f 2cbe f632 d53c
00000360: 5f35 453e 58a4 0f3d 682b 31be 08b7 d7bd
00000370: 1223 933d 1049 763d 71cd 383e 6e62 fe3d
00000380: dec2 523e eac7 06be 5844 963e ace2 163d
00000390: bb74 40be 2c49 25be 1402 8fbe 7096 573c
000003a0: be63 5a3e 815d 57bd 4ed5 913c 4d2b e0bc
000003b0: c625 303c 82f2 98bc 7c7b 773e f662 95bd
000003c0: 43b8 42bc 31fa 083e 0588 abbe 6b98 4cbe
000003d0: 8f94 983e 9045 073e 0c30 2a3d dc90 79be
000003e0: 337a 403e 88a1 6bbe 90c8 e53c c2f0 c3bd
000003f0: 7eda 9a3e d857 1b3e ece2 b83d 09d5 c2bc

sequential/dense_2/MatMul f4 [7, 32]
0.31922537 0.48539436 -0.54688805 -0.4254852 0.37956193 -0.36472404 0.28784627 -0.0004451324
-0.027750084 -0.2538745 -0.25883177 0.36773106 0.3294625 -0.35588062 -0.28742963 -0.5034802
0.28688896 -0.17932463 -0.3214424 -0.18793863 -0.27499065 -0.55229896 0.14549114 -0.37750438
-0.21011119 -0.5780116 -0.0036266567 -0.20058659 0.19404504 -0.009868828 -0.11978365 0.023166178
0.07055677 0.15873064 -0.011576857 -0.4016437 -0.3260652 0.46422538 0.24483795 -0.4126233
0.26850346 -0.1577509 0.12548198 0.1091368 0.09531739 0.47474208 -0.027075782 0.36009073
0.24089648 0.19188434 -0.26530093 0.022389831 0.2322205 0.18649928 -0.12102285 0.08738773
-0.019713126 0.32839927 0.20286573 -0.4836339 -0.016657425 0.42199337 0.2566173 0.22929406
0.12470896 -0.010784129 -0.434689 -0.074809015 -0.23856348 0.27973926 0.31745648 0.00083734386
-0.20423535 -0.26935387 0.31630003 -0.20839635 -0.36425495 0.08855579 -0.14211713 0.5163108
-0.29059753 0.28216743 0.432089 -0.1257862 -0.08449994 -0.5009164 -0.2558538 0.019773051
0.39687833 0.041453637 -0.086691685 0.4604131 -0.05312925 -0.31574428 0.08690872 0.10004924
0.27630866 0.3926229 0.31269827 0.20700164 -0.10325309 -0.079382285 0.2177633 -0.14737138
-0.0384587 0.27829307 -0.55744153 0.2778809 -0.46369734 -0.48002964 -0.37287998 -0.16492948
-0.31940314 -0.09531483 0.39114064 0.09658058 -0.31355137 0.41784728 -0.23918268 -0.18014748
-0.091245845 0.14478348 -0.29360023 0.26766953 -0.26474676 0.30398974 0.10156918 -0.52572674
-0.33102363 -0.24313077 0.13377737 0.04956235 0.3951329 -0.13715436 -0.018333733 -0.15229172
-0.28073522 0.14496946 0.21668683 0.12738208 0.014247474 -0.13314365 0.39357194 0.17809378
-0.08514445 -0.089235246 -0.27610418 -0.021536332 -0.30302134 0.04348738 -0.018098896 -0.081687935
0.07059832 0.008163642 -0.22706717 -0.17715737 -0.22106421 0.014524379 -0.1397736 -0.15365689
-0.008734 0.10436324 -0.26722664 0.2926222 -0.07675158 -0.34235707 -0.5602245 -0.032765795
0.43688682 0.29428825 -0.2947886 -0.128663 -0.04533526 -0.4188889 0.2275121 0.4890707
-0.43077302 -0.041541968 -0.32965353 0.10851812 0.2886738 -0.07209593 0.23790123 0.25382704
-0.42724764 0.0011458001 0.11747358 0.31217673 -0.17775792 -0.2987683 -0.15072373 -0.10557127
-0.32421723 0.25020796 0.42123958 0.4109081 -0.1798555 -0.17510037 0.1576203 -0.32168454
-0.0134957535 0.42080724 0.12562418 0.067562304 0.39411 -0.33886823 -0.3422081 -0.13200583
-0.09613266 -0.32979852 0.09813445 -0.3460544 -0.08729603 0.04290102 -0.44822565 -0.41170594
0.23552325 0.07148254 0.081593946 -0.36230358 0.43246827 -0.26018417 0.3168883 0.25172946
00000000: 8271 a33e 9c85 f83e db00 0cbf 32d9 d9be
00000010: f155 c23e 1cbd babe 9660 933e a960 e9b9
00000020: 2554 e3bc d7fb 81be 9985 84be 3f47 bc3e
00000030: 4faf a83e fc35 b6be fa29 93be 14e4 00bf
00000040: 1ce3 923e e0a0 37be 1994 a4be fc72 40be
00000050: 93cb 8cbe 7763 0dbf a1fb 143e 4148 c1be
00000060: 6327 57be 91f8 13bf 34ad 6dbb 9266 4dbe
00000070: beb3 463e ddb0 21bc 2151 f5bd ffc6 bd3c
00000080: 1180 903d 498a 223e dcac 3dbc 3ea4 cdbe
00000090: 05f2 a6be f3ae ed3e cdb6 7a3e 5c43 d3be
000000a0: 4979 893e 7489 21be 597e 003e 1d83 df3d
000000b0: c435 c33d 6511 f33e 08ce ddbc d05d b83e
000000c0: 91ad 763e 547d 443e 86d5 87be e16a b73c
000000d0: 36cb 6d3e abf9 3e3e d4da f7bd 57f8 b23d
000000e0: 6c7d a1bc f323 a83e 09bc 4f3e dd9e f7be
000000f0: 2775 88bc 840f d83e 5863 833e 10cc 6a3e
00000100: 6967 ff3d eaaf 30bc 8e8f debe 7835 99bd
00000110: fc49 74be fc39 8f3e a889 a23e 3281 5b3a
00000120: 1223 51be c0e8 89be 14f2 a13e da65 55be
00000130: a07f babe bd5c b53d 2787 11be f22c 043f
00000140: 33c9 94be 4078 903e c53a dd3e 19ce 00be
00000150: 4e0e adbd 0f3c 00bf 45ff 82be 18fb a13c
00000160: a333 cb3e 4acb 293d 698b b1bd 44bb eb3e
00000170: 0e9e 59bd 3ca9 a1be 33fd b13d 9ee6 cc3d
00000180: 5478 8d3e de05 c93e fd19 a03e 3df8 533e
00000190: 5b76 d3bd 2e93 a2bd 58fd 5e3e 86e8 16be
000001a0: df86 1dbd 6e7c 8e3e 7db4 0ebf 6846 8e3e
000001b0: bd69 edbe 72c6 f5be 20ea bebe 46e3 28be
000001c0: cf88 a3be 6c34 c3bd 9643 c83e 0acc c53d
000001d0: ce89 a0be 14f0 d53e 4eec 74be 9578 38be
000001e0: 1adf babd 1f42 143e c552 96be fb0b 893e
000001f0: e38c 87be 8ba4 9b3e 8103 d03d 0796 06bf
00000200: ee7b a9be 46f7 78be effc 083e e401 4b3d
00000210: dc4e ca3e 3172 0cbe a030 96bc 5cf2 1bbe
00000220: 87bc 8fbe e072 143e 27e3 5d3e 7370 023e
00000230: 3d6e 693c cf56 08be 4382 c93e 375e 363e
00000240: 3760 aebd f8c0 b6bd 875d 8dbe f66c b0bc
00000250: 9d25 9bbe d31f 323d 2344 94bc 014c a7bd
00000260: da95 903d ccc0 053c 4c84 68be be68 35be
00000270: a85e 62be a9f7 6d3c d020 0fbe 3b58 1dbe
00000280: 0d19 0fbc 65bc d53d eed1 88be 94d2 953e
00000290: ef2f 9dbd 6d49 afbe df6a 0fbf 6d35 06bd
000002a0: a1af df3e f3ac 963e 88ee 96be 3cc0 03be
000002b0: 77b1 39bd 9b78 d6be eff8 683e 7a67 fa3e
000002c0: 488e dcbe e927 2abd 59c8 a8be c03e de3d
000002d0: 0dcd 933e 08a7 93bd 619c 733e 9ef5 813e
000002e0: 34c0 dabe ac2e 963a fd95 f03d a1d5 9f3e
000002f0: 2c06 36be 29f8 98be 5257 1abe c035 d8bd
00000300: cdff a5be 421b 803e b7ac d73e 8c62 d23e
00000310: 0a2c 38be 834d 33be 3767 213e d6b3 a4be
00000320: 4b1d 5dbc 0c74 d73e a0a3 003e 1b5e 8a3d
00000330: c9c8 c93e 2380 adbe e635 afbe 892c 07be
00000340: 33e1 c4bd 5adb a8be b7fa c83d 0b2e b1be
00000350: 43c8 b2bd fbb8 2f3d d57d e5be 1fcb d2be
00000360: 022d 713e 7065 923d ba1a a73d db7f b9be
00000370: 7b6c dd3e dc36 85be 2f3f a23e afe2 803e

sequential/conv2d/Conv2D f4 [16, 3, 3, 3]
-0.1124094 -0.056678873 0.20459634 0.11672219 0.06332979 0.04256206 0.01556312 -0.07096715
0.12361013 -0.2224918 -0.16028713 -0.09175233 -0.14815505 -0.13335364 0.13060269 0.15659401
0.12023437 -0.025965124 -0.16437036 -0.15388055 -0.08768046 0.11646255 -0.15858947 0.18773146
-0.041834462 0.14983098 0.07728268 -0.02539079 -0.15265094 -0.024406357 -0.08308719 0.078888394
-0.17621629 -0.09888547 0.20165232 -0.06754584 0.040552948 0.043685287 -0.100255385 -0.21355593
-0.0055682384 0.047389556 -0.24206392 0.21613756 -0.11349594 0.043759525 0.017268185 0.095633596
-0.2076413 -0.08806431 -0.23010065 0.068813466 -0.01717093 -0.12261371 -0.038488396 -0.11340272
0.04358471 0.1505982 0.075005874 -0.32258224 -0.13067907 -0.22630292 -0.19727395 0.014359048
0.029724421 -0.11695669 0.026027935 0.07543064 -0.11692167 0.05848987 0.13110003 -0.0112952525
-0.12871373 0.230789 0.16611685 0.17240976 0.26598787 0.20478074 0.12630692 0.14002326
0.014442526 -0.073690884 -0.1604854 -0.11019323 -0.09909852 -0.22338755 -0.09363207 0.091257125
-0.11666314 -0.08735092 0.0908297 0.09252033 0.12193041 0.15818408 -0.22292049 0.20981912
0.14671496 -0.07221877 0.2056668 0.006790318 -0.08815722 0.18178597 0.03868843 0.08288476
-0.07062631 0.060467336 -0.032533593 0.077471845 0.09530556 0.24361715 0.16860873 -0.116615206
-0.018319728 -0.06544489 0.016422274 -0.1715191 -0.1619664 0.05111917 0.1224805 0.3334298
0.16889216 -0.21999535 -0.15355337 -0.04999529 0.021961443 -0.12940389 0.08353705 0.10131357
0.102035604 0.06560099 0.031129215 -0.15988931 -0.097456045 -0.17077467 0.004320523 0.013373978
0.22217399 0.21940757 0.021409819 -0.056710646 -0.16431278 0.18147305 -0.108256646 0.1987266
-0.09572531 -0.12094699 -0.17390026 -0.14810663 -0.115986966 -0.11615403 -0.16063945 -0.12832005
-0.08558827 0.01009684 0.17311712 -0.12488955 0.060771447 0.0024728004 -0.12363251 0.008773284
0.24210238 0.25729316 -0.024645193 0.14467604 0.10749849 -0.20734236 0.13109079 -0.014297336
-0.21300338 -0.0957034 -0.15684071 0.03709097 -0.024028745 0.07823744 0.059041932 -0.13140766
0.14412591 -0.17917319 0.03506087 0.21032754 -0.1059818 0.17061332 -0.07747278 -0.26061764
-0.18500985 0.035093106 0.115641296 -0.03362588 0.18563904 0.05881527 -0.18194507 -0.10894021
-0.122929454 -0.15379979 0.11225434 0.101993635 -0.1839251 -0.15829432 -0.03436875 -0.15415299
0.09107066 0.109865986 -0.11877817 0.19271696 -0.16649312 -0.1665163 0.08321269 0.017912429
-0.007873784 0.21920833 0.033655137 0.2076343 0.028129015 0.005557385 0.2104623 0.039936766
0.15253262 0.034834385 0.18244725 0.027759857 -0.19642363 0.15816201 -0.17844543 -0.15495318
0.057216503 0.20237942 -0.08582345 0.029268038 0.18614297 0.1052337 0.17960307 0.059003294
-0.087961406 -0.012534315 -0.09333176 0.093460195 0.02793835 -0.18960738 -0.25777832 -0.11773599
0.0437371 -0.11143778 -0.03865212 0.2023126 0.20020972 -0.19810326 -0.04450926 0.09737284
-0.22495182 0.022635624 -0.11344775 -0.0015334934 0.16112672 -0.119549446 0.1151835 -0.065454125
00000000: e636 e6bd 1b28 68bd b481 513e 0b0c ef3d
00000010: 0db3 813d 8e55 2e3d 75fc 7e3c 3a57 91bd
00000020: 4f27 fd3d e4d4 63be 4f22 24be a5e8 bbbd
00000030: f5b5 17be db8d 08be b6bc 053e 2e5a 203e
00000040: 703d f63d d0b4 d4bc b450 28be dd92 1dbe
00000050: d091 b3bd eb83 ee3d 4765 22be ad3c 403e
00000060: 9d5a 2bbd 4b6d 193e 6246 9e3d 5900 d0bc
00000070: 8750 1cbe d7ef c7bc 9e29 aabd 3d90 a13d
00000080: 0b72 34be 7784 cabd f27d 4e3e 7955 8abd
00000090: d91a 263d 58ef 323d b252 cdbd 68ae 5abe
000000a0: c575 b6bb 8d1b 423d 9bdf 77be 2a53 5d3e
000000b0: 8f70 e8bd 303d 333d 0276 8d3c 8cdb c33d
000000c0: ec9f 54be 105b b4bd 819f 6bbe 13ee 8c3d
000000d0: 0daa 8cbc e61c fbbd 02a6 1dbd af3f e8bd
000000e0: e285 323d 6a36 1a3e ae9c 993d 8029 a5be
000000f0: bcd0 05be f4bb 67be 2f02 4abe 3642 6b3c
00000100: a180 f33c fd86 efbd 8938 d53c 617b 9a3d
00000110: a174 efbd 1393 6f3d 163f 063e b90f 39bc
00000120: 88cd 03be f453 6c3e 891a 2a3e 2f8c 303e
00000130: 902f 883e 0bb2 513e 9a56 013e 4262 0f3e
00000140: 58a0 6c3c 3feb 96bd 4956 24be fdac e1bd
00000150: 2af4 cabd b5bf 64be 2cc2 bfbd 04e5 ba3d
00000160: 16ed eebd 0ae5 b2bd ec04 ba3d 4c7b bd3d
00000170: a7b6 f93d 02fb 213e 4545 64be d3da 563e
00000180: 723c 163e 6fe7 93bd 519a 523e 5181 de3b
00000190: c68b b4bd 1a26 3a3e c277 1e3d 7cbf a93d
000001a0: 87a4 90bd 99ac 773d f241 05bd 8fa9 9e3d
000001b0: 902f c33d c676 793e c4a7 2c3e f4d3 eebd
000001c0: 4113 96bc f807 86bd 0188 863c b4a2 2fbe
000001d0: 85da 25be 5662 513d 0ed7 fa3d 50b7 aa3e
000001e0: 11f2 2c3e 7646 61be 183d 1dbe dcc7 4cbd
000001f0: 7ce8 b33c 7482 04be 7915 ab3d 7d7d cf3d
00000200: 0bf8 d03d d059 863d b202 ff3c 06ba 23be
00000210: 0997 c7bd 8edf 2ebe 2c93 8d3b 881e 5b3c
00000220: 9481 633e 61ac 603e a563 af3c 6c49 68bd
00000230: 9c41 28be 12d4 393e a9b5 ddbd fc7e 4b3e
00000240: a20b c4bd 0eb3 f7bd e912 32be 44a9 17be
00000250: 938a edbd 2ae2 edbd ab7e 24be 5566 03be
00000260: e748 afbd 376d 253c 9d45 313e 18c6 ffbd
00000270: 7beb 783d b50e 223b 0b33 fdbd d2bd 0f3c
00000280: b0e9 773e eebb 833e b7e4 c9bc f525 143e
00000290: 2b28 dc3d 8e51 54be aa3c 063e 603f 6abc
000002a0: 8f1d 5abe 2500 c4bd da9a 20be b3ec 173d
000002b0: eed7 c4bc f33a a03d f4d5 713d bb8f 06be
000002c0: be95 133e 2d79 37be fd9b 0f3d 1a60 573e
000002d0: fc0c d9bd 42b5 2e3e 0daa 9ebd ad6f 85be
000002e0: 3973 3dbe cabd 0f3d 58d5 ec3d 4abb 09bd
000002f0: 2918 3e3e 48e8 703d cf4f 3abe 0b1c dfbd
00000300: 70c2 fbbd b17d 1dbe 9ae5 e53d 0ae2 d03d
00000310: dd56 3cbe e817 22be 3fc6 0cbd 48da 1dbe
00000320: 4183 ba3d 6b01 e13d f841 f3bd 9857 453e
00000330: 2c7d 2abe 4083 2abe 6a6b aa3d 16bd 923c
00000340: 0b01 01bc 2678 603e f8d9 093d 169e 543e
00000350: d26e e63c b91a b63b 6e83 573e bc94 233d
00000360: 8331 1c3e 80ae 0e3d 74d3 3a3e a468 e33c
00000370: 4723 49be 39f5 213e 66ba 36be 0cac 1ebe
00000380: da5b 6a3d 8d3c 4f3e 34c4 afbd 86c3 ef3c
00000390: 439c 3e3e c484 d73d dee9 373e 70ad 713d
000003a0: 1c25 b4bd ba5c 4dbc b924 bfbd 0f68 bf3d
000003b0: f7de e43c 7028 42be 85fb 83be 911f f1bd
000003c0: ac25 333d 7e39 e4bd af51 1ebd 092b 4f3e
000003d0: c703 4d3e 95db 4abe 584f 36bd 696b c73d
000003e0: c559 66be 586e b93c 4b57 e8bd 80ff c8ba
000003f0: 67fe 243e 57d6 f4bd 54e5 eb3d d00c 86bd

sequential/conv2d_1/Conv2D f4 [32, 3, 3, 16]
0.13489982 -0.12975858 -0.06735811 0.045018513 0.12411054 0.029655242 -0.09137332 -0.10661646
-0.041656356 0.0343577 -0.1323008 -0.075236544 -0.023904074 -0.112686805 0.06724747 -0.056876607
0.18400681 -0.036950484 0.06379583 -0.13014291 0.0041794614 0.076002516 -0.18897085 0.0730282
0.034387227 0.13744722 -0.041297846 -0.15077175 -0.13831018 -0.14041099 -0.023535311 -0.13062313
0.052599512 0.023015615 -0.014535323 -0.07919533 -0.19047405 0.054292265 -0.13044816 0.013841415
-0.013241686 -0.014829103 0.1321949 0.014063975 -0.08459105 0.048707396 0.079277515 -0.1397645
0.06877601 -0.116959594 -0.046534967 0.056307066 0.0036832227 0.08843538 -0.066016175 0.07512058
0.049469512 0.15253459 0.01464126 -0.04555924 -0.010305821 0.0070049474 -0.12828957 -0.12091257
0.017428588 0.05806892 -0.11179816 0.028771074 -0.19854091 -0.114953086 -0.027768627 0.08932386
-0.14297289 -0.05455488 0.104699634 0.02117067 0.07811218 0.022031656 -0.09589396 -0.19708078
-0.03773408 0.08681252 -0.026893746 0.005014125 -0.16603972 -0.2119225 0.0021847468 0.15189262
-0.09470774 -0.04383695 0.08792366 0.087326474 0.077595785 -0.05364505 0.065385625 -0.21439928
0.13690287 0.0030905313 -0.10775576 0.16297735 0.07872336 0.047181394 -0.08015667 0.25709805
-0.11695197 -0.07264149 0.0789312 -0.019224202 0.052971046 0.13576521 -0.111831084 -0.21715589
0.023744667 -0.1029551 0.05866541 -0.057467822 -0.25443128 0.03022848 0.033642776 0.095570736
-0.1352734 -0.019676061 -0.06960524 0.010724949 -0.05275492 0.14413507 -0.03480432 -0.18335523
-0.17996106 -0.0040093996 -0.006579594 -6.7172e-05 0.018715665 -0.19235367 0.083148666 -0.003093185
-0.11327623 -0.004074567 0.12111648 0.12035215 0.008800445 0.079588056 0.0029901958 0.098189846
-0.01213827 -0.055822384 0.0802951 -0.0039305426 0.123877406 -0.030473713 0.1561884 -0.035142753
0.14872628 0.032729324 0.12860723 -0.010646186 -0.010464811 -0.07276151 0.12793322 -0.056546208
0.02549907 0.025496785 0.016612794 0.18810347 0.1389532 0.0036506406 -0.0021217288 0.071139075
0.1409606 -0.10436952 -0.101942025 -0.036274076 0.11273881 -0.06209037 -0.198596 0.10146508
0.011906609 -0.13745686 0.03403456 0.09536578 0.07980141 0.002381851 0.030796709 0.029868508
0.099393465 -0.14792223 -0.06294491 -0.08787784 0.07940589 -0.106926076 -0.20641814 -0.04830384
-0.28817114 -0.10905365 -0.104238175 0.03422035 -0.011660576 0.13919763 -0.028704446 -0.06487233
0.14406273 -0.059062548 0.13529757 -0.039495684 -0.009544403 0.07768366 0.16598307 -0.03924687
0.08587586 -0.11410644 -0.043609392 0.042197637 -0.028455041 -0.008465089 0.019494293 -0.010569224
0.17708017 0.06412371 0.06739333 0.0020249155 0.11432098 0.004227375 -0.11020177 -0.0004812403
-0.079686865 -0.08047127 -0.09664828 0.056965068 0.0007192091 -0.107327946 -0.07529774 -0.07053891
0.1602285 -0.0025595436 0.050571322 -0.05725934 0.016772678 0.064655386 -0.17209633 -0.16943221
-0.3795012 0.020611143 0.06141489 0.14749995 0.025808811 0.14235544 -0.02876216 0.051129065
0.013410802 0.12043953 0.085899875 -0.07369948 0.026145728 0.09931293 0.12334008 -0.21257192
00000000: 2e23 0a3e 6fdf 04be 0cf3 89bd 5565 383d
00000010: ab2d fe3d 8def f23c ef21 bbbd bb59 dabd
00000020: db9f 2abd a9ba 0c3d dc79 07be 9e15 9abd
00000030: 7ad2 c3bc 57c8 e6bd 0bb9 893d 72f7 68bd
00000040: 486c 3c3e 6459 17bd 63a7 823d 2f44 05be
00000050: ddf3 883b 35a7 9b3d 9381 41be cf8f 953d
00000060: 9fd9 0c3d f7be 0c3e ee27 29bd e963 1abe
00000070: 2fa1 0dbe e6c7 0fbe 20cd c0bc 12c2 05be
00000080: 9672 573d 3e8b bc3c 9025 6ebc 2931 a2bd
00000090: a10b 43be 9161 5e3d 3494 05be 1ac7 623c
000000a0: a8f3 58bc c4f5 72bc 1a5e 073e 966c 663c
000000b0: 133e adbd 6881 473d 405c a23d 6d1e 0fbe
000000c0: 70da 8c3d 8388 efbd 739b 3ebd 3da2 663d
000000d0: 3962 713b 9c1d b53d 7d33 87bd d2d8 993d
000000e0: 8ba0 4a3d 0732 1c3e e5e1 6f3c 539c 3abd
000000f0: bfd9 28bc c289 e53b 575e 03be 02a1 f7bd
00000100: 66c6 8e3c add9 6d3d 6ff6 e4bd 51b1 eb3c
00000110: 4f4e 4bbe 866c ebbd 087b e3bc 6eef b63d
00000120: 7c67 12be f074 5fbd c36c d63d 1d6e ad3c
00000130: 47f9 9f3d bb7b b43c 0d64 c4bd 8bcf 49be
00000140: 0d8f 1abd c3ca b13d 4650 dcbc 874d a43b
00000150: 5106 2abe 3602 59be f82d 0f3b bd89 1b3e
00000160: 22f6 c1bd 608e 33bd 5211 b43d 39d8 b23d
00000170: 8aea 9e3d e9ba 5bbd e6e8 853d 7c8b 5bbe
00000180: 4430 0c3e 838a 4a3b 0daf dcbd 89e3 263e
00000190: b739 a13d 4741 413d 2e29 a4bd 5ba2 833e
000001a0: 8484 efbd 10c5 94bd aea6 a13d 137c 9dbc
000001b0: 2bf8 583d 0906 0b3e b207 e5bd 1d5e 5ebe
000001c0: 2d84 c23c 20da d2bd 244b 703d 6163 6bbd
000001d0: d144 82be b8a1 f73c 02cd 093d 97ba c33d
000001e0: 1c85 0abe b12f a1bc 318d 8ebd b2b7 2f3c
000001f0: 8b15 58bd 2598 133e fa8e 0ebd 79c1 3bbe
00000200: b647 38be 4861 83bb a399 d7bb b1de 8cb8
00000210: 9851 993c 5cf8 44be d949 aa3d 08b7 4abb
00000220: 5efd e7bd f283 85bb eb0b f83d 307b f63d
00000230: be2f 103c 10ff a23d 29f7 433b c217 c93d
00000240: 98df 46bc 03a6 64bd c271 a43d c8cb 80bb
00000250: 70b3 fd3d 02a4 f9bc daef 1f3e d9f1 0fbd
00000260: b44b 183e 2f0f 063d 9db1 033e 576d 2ebc
00000270: 9974 2bbc fd03 95bd ed00 033e ff9c 67bd
00000280: 6de3 d03c a2de d03c 8e17 883c 329e 403e
00000290: bf49 0e3e 963f 6f3b b40c 0bbb 5db1 913d
000002a0: fa57 103e b0bf d5bd fbc6 d0bd 2094 14bd
000002b0: 9be3 e63d 7952 7ebd c05c 4bbe edcc cf3d
000002c0: f013 433c 7ec1 0cbe d367 0b3d 224f c33d
000002d0: ec6e a33d d418 1c3b 6149 fc3c cdae f43c
000002e0: cd8e cb3d ed78 17be 43e9 80bd 4cf9 b3bd
000002f0: 8e9f a23d 0ffc dabd 475f 53be 3fda 45bd
00000300: 2b8b 93be 8557 dfbd d37a d5bd a32a 0c3d
00000310: 000c 3fbc d389 0e3e 9625 ebbc c9db 84bd
00000320: 2e85 133e 92eb 71bd 728b 0a3e 3ac6 21bd
00000330: 2160 1cbc 9c18 9f3d 77f7 293e 53c1 20bd
00000340: afdf af3d a3b0 e9bd c39f 32bd 6ed7 2c3d
00000350: 8c1a e9bc 28b1 0abc 7fb2 9f3c 8a2a 2dbc
00000360: 8154 353e 4b53 833d 8405 8a3d 72b4 043b
00000370: 1e21 ea3d cb85 8a3b 77b1 e1bd fb4e fcb9
00000380: de32 a3bd 1fce a4bd 89ef c5bd 3454 693d
00000390: 4e89 3c3a c1ce dbbd b435 9abd b476 90bd
000003a0: f112 243e 04be 27bb e023 4f3d c588 6abd
000003b0: db66 893c 0b6a 843d 053a 30be a37f 2dbe
000003c0: fb4d c2be b3d8 a83c 2e8e 7b3d 3a0a 173e
000003d0: 006d d33c a0c5 113e 9f9e ebbc b66c 513d
000003e0: fbb8 5b3c 00a9 f63d 46ec af3d c1ef 96bd
000003f0: 912f d63c 9464 cb3d b999 fc3d 74ac 59be

sequential/conv2d_2/Conv2D f4 [32, 3, 3, 32]
0.19255303 0.0063278424 0.040562578 0.1447944 0.027834753 0.1332968 0.027524434 0.19777672
-0.005330243 -0.06504628 -0.010396385 -0.07253915 0.051224537 0.04530228 0.08488549 0.014509801
0.080403335 -0.038538802 -0.026067318 0.16841342 0.10690414 -0.13563365 0.038102426 0.19438377
0.13558726 0.10196601 0.24672371 -0.026104039 0.012313902 0.13849914 0.15102164 0.0013456405
0.01730995 0.10748021 0.11164447 0.100367196 0.11275282 0.12879412 -0.06065211 0.054829795
0.16175456 -0.019809563 -0.17742409 -0.12500986 -0.073871754 0.063093975 0.009193341 0.10291699
-0.10759869 -0.11486656 0.057824273 0.28698406 -0.06682596 -0.15771085 -0.06295382 0.137445
0.13199295 -0.087407805 -0.022616623 -0.12713131 -0.10727528 0.03700484 0.1485734 -0.10685836
0.14512548 0.099965736 0.12075393 -0.045110617 0.13023022 0.12712495 -0.040371783 -0.16133174
0.14895007 -0.12301556 -0.29646936 -0.20238249 -0.08585268 -0.18300167 -0.028158367 0.10064089
-0.08944334 -0.03291305 0.13919662 0.15921485 -0.038422514 -0.13738476 -0.1562961 0.11217346
-0.022617273 0.012456482 0.14179564 -0.033552013 -0.18850154 -0.04431674 0.04200237 -0.15916222
0.13537638 0.11894194 0.17051966 0.014862977 -0.0061329864 0.1920252 0.017298583 0.003082682
-0.055036653 -0.00342417 0.088785216 -0.32647514 0.020498306 0.03539396 0.10005717 7.56499e-05
-0.12442067 0.014421971 0.10683371 0.10545855 -0.061010554 -0.15713364 -0.047151823 -0.030417569
-0.013105938 -0.05224385 -0.04782916 0.061641663 0.08119978 0.017109556 0.17257927 0.061502226
0.0010115664 0.148637 0.066054836 0.09728966 -0.032783933 0.17438598 -0.012918593 -0.116106145
0.12059458 0.05421539 0.016162438 -0.20012777 0.07399079 -0.0913335 -0.0053319875 -0.022037337
-0.0838031 0.036540043 0.078078285 -0.015890537 -0.08834263 -0.13126199 -0.056195688 0.07057603
-0.12947461 -0.08880281 0.18198735 0.02507591 -0.1722181 0.037205447 -0.07130504 0.039881993
-0.101401314 0.1557776 -0.097329356 0.09852426 0.012298765 0.12176282 -0.099773 -0.2196397
-0.074098654 0.03437203 -0.29249212 -0.29449242 0.085820794 0.021639485 0.10915325 -0.038939465
-0.030712036 -0.10239196 -0.043903083 -0.066017225 0.09811964 -0.20568454 0.077017345 -0.012732306
0.021855228 -0.060327005 0.17323522 -0.051140167 -0.10665638 0.107926995 -0.08165738 -0.07329761
0.032309193 0.13947508 -0.12069623 0.06280402 -0.07294232 0.14226478 0.030798621 0.078511596
0.0062331245 -0.39506313 0.08022222 -0.31145033 0.07169186 -0.32755807 0.13350832 -0.037635867
-0.04444453 -0.19354695 6.696684e-05 0.13649927 -0.01144847 -0.13510478 -0.16875291 0.097535536
-0.2490899 0.10037791 -0.027739108 -0.099848665 0.14383103 0.10965626 0.08918816 -0.27369353
-0.14115842 0.043430984 -0.21413934 0.13632832 -0.023767479 0.06519792 -0.14822198 -0.12938729
0.07921165 0.10630089 -0.22756603 -0.35553834 0.08167423 -0.044412542 0.09282932 0.009849684
-0.1026577 -0.20482141 0.039926015 -0.06537487 -0.13094103 0.015343318 -0.24424759 0.053653006
-0.29824108 -0.05123945 0.02443485 0.009874381 -0.09784578 0.028133277 -0.08303634 -0.073210925
00000000: 9f2c 453e ca59 cf3b f224 263d fc44 143e
00000010: b505 e43c f57e 083e ec7a e13c fb85 4a3e
00000020: 52a9 aebb fc36 85bd 9955 2abc 688f 94bd
00000030: d2d0 513d e28e 393d 72d8 ad3d 84ba 6d3c
00000040: 81aa a43d ddda 1dbd 218b d5bc 9174 2c3e
00000050: 8ff0 da3d 8ce3 0abe 4a11 1c3d 8a0c 473e
00000060: 63d7 0a3e 8ed3 d03d 24a5 7c3e 23d8 d5bc
00000070: 40c0 493c b8d2 0d3e 6ba5 1a3e 3460 b03a
00000080: 99cd 8d3c 961e dc3d dba5 e43d 518d cd3d
00000090: f3ea e63d 9be2 033e 596e 78bd 3595 603d
000000a0: fda2 253e aa47 a2bc a9ae 35be 9602 00be
000000b0: 134a 97bd 6a37 813d ab9f 163c 25c6 d23d
000000c0: b45c dcbd 293f ebbd 25d9 6c3d 93ef 923e
000000d0: 0ddc 88bd f47e 21be efed 80bd 62be 0c3e
000000e0: 2929 073e dd02 b3bd 7f46 b9bc b62e 02be
000000f0: 24b3 dbbd 6392 173d a023 183e 8ed8 dabd
00000100: c69b 143e d6ba cc3d d64d f73d e9c5 38bd
00000110: 125b 053e 0b2d 023e e25c 25bd 2634 25be
00000120: 5e86 183e 95ef fbbd d5ca 97be 5b3d 4fbe
00000130: 88d3 afbd ca64 3bbe 60ac e6bc d01c ce3d
00000140: 122e b7bd d6cf 06bd 8f89 0e3e 3809 233e
00000150: ed60 1dbd 97ae 0cbe 160c 20be 33bb e53d
00000160: dc47 b9bc 4616 4c3c e032 113e d66d 09bd
00000170: 8c06 41be 7885 35bd ad0a 2c3d 6cfb 22be
00000180: 1ba0 0a3e d597 f33d b59c 2e3e d883 733c
00000190: 38f7 c8bb 41a2 443e c2b5 8d3c d206 4a3b
000001a0: 1d6e 61bd 0a68 60bb 06d5 b53d c027 a7be
000001b0: 10ec a73c 42f9 103d c6ea cc3d 3ba6 9e38
000001c0: 44d0 febd 214a 6c3c a2cb da3d a7fa d73d
000001d0: 34e6 79bd a4e7 20be 4522 41bd 442e f9bc
000001e0: 4aba 56bc a6fd 55bd 82e8 43bd f87b 7c3d
000001f0: 124c a63d 5729 8c3c 9fb8 303e c2e9 7b3d
00000200: 8996 843a 4c34 183e c247 873d cd3f c73d
00000210: 7248 06bd 3d92 323e 82a8 53bc 0fc9 edbd
00000220: 4bfa f63d f510 5e3d 1767 843c 4bee 4cbe
00000230: 7c88 973d 0f0d bbbd f4b7 aebb a587 b4bc
00000240: f6a0 abbd 03ab 153d 82e7 9f3d df2c 82bc
00000250: fbec b4bd 8b69 06be 732d 66bd 2a8a 903d
00000260: fe94 04be 3fde b5bd e45a 3a3e ff6b cd3c
00000270: f159 30be bd64 183d 6008 92bd 4d5b 233d
00000280: 7eab cfbd 2a84 1f3e 9d54 c7bd 16c7 c93d
00000290: c280 493c c95e f93d c955 ccbd 3be9 60be
000002a0: 09c1 97bd b0c9 0c3d 87c1 95be b6c7 96be
000002b0: d0c2 af3d 4a45 b13c bd8b df3d fd7e 1fbd
000002c0: cf97 fbbc e0b2 d1bd b8d3 33bd 0a34 87bd
000002d0: f3f2 c83d f89e 52be 45bb 9d3d 299b 50bc
000002e0: bc09 b33c 7319 77bd 9364 313e 5a78 51bd
000002f0: a96e dabd d408 dd3d fc3b a7bd 0f1d 96bd
00000300: a556 043d 8ed2 0e3e 962f f7bd 659f 803d
00000310: c862 95bd dcad 113e 644d fc3c b0ca a03d
00000320: 3d3f cc3b b745 cabe 8c4b a43d 6b76 9fbe
00000330: 2fd3 923d b1b5 a7be 68b6 083e 1128 1abd
00000340: 780b 36bd 2c31 46be 8c70 8c38 77c6 0b3e
00000350: 5d92 3bbc e858 0abe 90cd 2cbe b6c0 c73d
00000360: 6c11 7fbe ef92 cd3d 203d e3bc 757d ccbd
00000370: 7148 133e 7693 e03d 48a8 b63d 8f21 8cbe
00000380: d58b 10be b0e4 313d 5847 5bbe a799 0b3e
00000390: 04b4 c2bc 7d86 853d 81c7 17be 1a7e 04be
000003a0: b839 a23d 48b4 d93d 1207 69be 1f09 b6be
000003b0: d244 a73d ede9 35bd 4c1d be3d 9260 213c
000003c0: 333e d2bd b4bc 51be 7689 233d 43e3 85bd
000003d0: 6815 06be 8a62 7b3c 0a1c 7abe 41c3 5b3d
000003e0: 0eb3 98be 75e0 51bd 982b c83c 28c8 213c
000003f0: 5e63 c8bd c277 e63c f50e aabd 9cef 95bd

sequential/conv2d_3/Conv2D f4 [64, 3, 3, 32]
0.029093515 -0.13476346 0.12535831 0.064050704 -0.012598834 -0.22613257 0.15046187 0.14024061
0.10156339 0.09332219 0.12798147 0.09291973 0.044241063 -0.08871814 -0.017156633 -0.018835926
-0.09856228 -0.22010669 0.06005701 0.059076253 -0.042509366 0.14938542 -0.002835589 0.040138215
-0.20552225 0.17654842 0.12379808 -0.3241735 -0.0023832242 0.08804367 0.022487326 0.12841332
-0.09411921 0.13880156 -0.052482184 0.0570754 -0.16601282 0.03550343 0.070270434 0.060954355
0.13400547 0.1520777 -0.03126598 0.28314245 0.057937235 0.1010682 0.0780673 0.12268755
-0.18224467 -0.0878259 -0.10403255 -0.01940918 -0.14587413 0.05441752 -0.0381168 0.010292958
-0.120613396 0.065232135 -0.086605564 -0.1471648 -0.04080018 -0.045400217 0.08590202 0.12337528
-0.1025214 -0.06602579 -0.10031427 0.025528975 -0.020451922 -0.17805915 0.035594188 -0.015534753
-0.22512187 0.06935628 -0.20261289 -0.22531565 -0.29344004 0.06418625 0.047622215 -0.05344515
-0.05371467 -0.044065386 -0.21696606 0.036089465 0.016505953 0.0114899445 -0.1529195 -0.024655532
0.04816614 -0.18911321 0.060697943 -0.041740827 0.0024120028 -0.13105701 0.0164329 0.0652033
-0.03874664 -0.017344657 0.003824397 0.027871298 0.051166475 -0.09760895 0.010385116 0.07600572
0.020738462 -0.041688185 0.15822902 -0.025014006 -0.044096462 0.0083350325 0.0067287246 -0.1209348
-0.13733399 -0.16758533 0.063154936 -0.06049206 -0.030541072 0.089107126 0.006848828 0.045818593
-0.3630375 0.012125958 0.15097885 -0.21798904 0.0022144665 0.10480968 -0.006186573 0.0045812954
-0.18464915 0.01759489 0.03235068 -0.06331144 -0.12581868 0.037597097 0.076414526 0.023387762
0.003983601 -0.040537845 0.08232372 0.045790043 0.10551832 0.006145909 0.012094689 -0.054277476
0.011301673 -0.18429932 -0.15514252 -0.085019805 -0.03701594 0.038070522 0.045435946 -0.088823095
-0.22721832 -0.013552222 0.101276465 0.019299112 -0.117046595 -0.008777178 -0.22093363 -0.0046869977
-0.020510348 -0.057968505 0.026538422 -0.050209604 -0.09589025 -0.18952727 0.1219416 -0.054600835
-0.2348787 0.15450948 -0.20372158 -0.19078274 0.089827955 0.041428555 -0.057022654 0.0088133775
-0.09279484 -0.13151489 -0.093721904 -0.068477444 -0.16428846 -0.005600782 -0.14200264 -0.19197223
-0.11337289 -0.034584586 0.021153081 -0.021523075 -0.064383164 0.010305217 -0.25123802 0.13605937
-0.20199923 -0.16382839 0.0483668 0.09813843 0.046473708 0.06205794 0.09640839 -0.019052751
0.02578876 0.08119251 -0.057137262 -0.090388194 -0.07103188 -0.13765784 0.07797051 0.10991341
0.015748875 0.15991315 -0.06014632 0.046098717 0.046927266 0.0106743 -0.14439897 -0.029904138
0.044014417 -0.020796295 0.11935288 -0.081199974 -0.20130818 0.03253346 -0.0037623995 -0.062199082
-0.21841957 -0.08443881 0.012956468 -0.024111196 0.06344538 0.026412291 -0.034505803 -0.03204076
0.0063179787 -0.042392123 0.0060076416 -0.070253745 0.008256442 -0.051014233 -0.106359914 -0.061860234
-0.008821845 0.13766524 0.013658384 -0.13553317 0.040391978 -0.04917671 -0.15404941 -0.10885688
0.16530217 0.051797964 0.117333286 -0.106597915 -0.09696151 0.086939685 0.0010354957 0.029381514
00000000: 8655 ee3c 6fff 09be ee5d 003e 042d 833d
00000010: 576b 4ebc 4c8f 67be ad12 1a3e 3c9b 0f3e
00000020: 7700 d03d b41f bf3d 930d 033e b34c be3d
00000030: 1e36 353d dbb1 b5bd 118c 8cbc cd4d 9abc
00000040: 05db c9bd a663 61be 57fe 753d f1f9 713d
00000050: 4d1e 2ebd 7ef8 183e 4ad5 39bb f867 243d
00000060: 6d74 52be 1cc9 343e d989 fd3d 12fa a5be
00000070: de2f 1cbb 3d50 b43d 5737 b83c c87e 033e
00000080: 93c1 c0bd ff21 0e3e 8ff7 56bd e5c7 693d
00000090: 44ff 29be 0b6c 113d f2e9 8f3d 46ab 793d
000000a0: bb38 093e 42ba 1b3e c210 00bd 0cf8 903e
000000b0: 984f 6d3d d8fc ce3d c0e1 9f3d 9c43 fb3d
000000c0: 599e 3abe 11de b3bd 040f d5bd 0000 9fbc
000000d0: 0760 15be e8e4 5e3d 5d20 1cbd cba3 283c
000000e0: 2804 f7bd 6d98 853d 425e b1bd 5fb2 16be
000000f0: 171e 27bd 94f5 39bd 66ed af3d 2eac fc3d
00000100: bdf6 d1bd 8838 87bd 9171 cdbd 2422 d13c
00000110: ca8a a7bc 2355 36be 36cb 113d 7a85 7ebc
00000120: 5986 66be aa0a 8e3d c179 4fbe 25b9 66be
00000130: c63d 96be 1574 833d 830f 433d 4de9 5abd
00000140: ea03 5cbd e87d 34bd 5a2c 5ebe 8cd2 133d
00000150: 7e37 873c 5240 3c3c ee96 1cbe 66fa c9bc
00000160: dc49 453d e5a6 41be 689e 783d 6ef8 2abd
00000170: b112 1e3b cf33 06be 4a9e 863c 4f89 853d
00000180: ccb4 1ebd 6216 8ebc bca2 7a3b 5952 e43c
00000190: f093 513d 34e7 c7bd 5526 2a3c e3a8 9b3d
000001a0: b5e3 a93c 3bc1 2abd ca06 223e 2cea ccbc
000001b0: 7e9e 34bd a98f 083c a27c dc3b aaac f7bd
000001c0: 48a1 0cbe 7d9b 2bbe 6057 813d 86c6 77bd
000001d0: 4531 fabc cc7d b63d 226c e03b 47ac 3b3d
000001e0: 0de0 b9be f4ab 463c 339a 1a3e 8538 5fbe
000001f0: 9520 113b 75a6 d63d bcb8 cabb b11e 963b
00000200: ab14 3dbe 2923 903c 2682 043d 6ea9 81bd
00000210: 9dd6 00be 6aff 193d 387f 9c3d b197 bf3c
00000220: de88 823b 030b 26bd 5799 a83d 578e 3b3d
00000230: fd19 d83d 9f63 c93b cd28 463c 0f52 5ebd
00000240: a72a 393c f6b8 3cbe aedd 1ebe dd1e aebd
00000250: 079e 17bd d6ef 1b3d 0b1b 3a3d e2e8 b5bd
00000260: ebab 68be 240a 5ebc 096a cf3d 2c19 9e3c
00000270: 20b6 efbd 27ce 0fbc 6d3c 62be 6395 99bb
00000280: 5105 a8bc 6270 6dbd 1b67 d93c 96a8 4dbd
00000290: 1b62 c4bd 7013 42be 85bc f93d 20a5 5fbd
000002a0: 0b84 70be bc37 1e3e 649c 50be 8d5c 43be
000002b0: b8f7 b73d fdb0 293d 9690 69bd fc65 103c
000002c0: 390b bebd d7ab 06be 45f1 bfbd e73d 8cbd
000002d0: 3c3b 28be c486 b7bb 2469 11be 5e94 44be
000002e0: 0c30 e8bd 91a8 0dbd 3a49 ad3c 2951 b0bc
000002f0: 52db 83bd 36d7 283c 45a2 80be 2653 0b3e
00000300: e3d8 4ebe a1c2 27be 441c 463d cdfc c83d
00000310: 375b 3e3d 7730 7e3d c371 c53d 8414 9cbc
00000320: f342 d33c 4248 a63d c308 6abd 721d b9bd
00000330: 2a79 91bd 2df6 0cbe 01af 9f3d 481a e13d
00000340: c903 813c 46c0 233e fd5b 76bd 02d2 3c3d
00000350: ce36 403d 42e3 2e3c 53dd 13be 86f9 f4bc
00000360: 7648 343d fe5c aabc 486f f43d 2c4c a6bd
00000370: bb23 4ebe ce41 053d 9792 76bb 77c4 7ebd
00000380: 61a9 5fbe 41ee acbd 5e47 543c d884 c5bc
00000390: a7ef 813d 975e d83c f555 0dbd 2c3d 03bd
000003a0: 0c07 cf3b 5da3 2dbd c0db c43b 32e1 8fbd
000003b0: 0746 073c 4df4 50bd 3ad3 d9bd 2861 7dbd
000003c0: 8089 10bc 1ef8 0c3e 6ac7 5f3c 35c9 0abe
000003d0: 0f72 253d 856d 49bd 21bf 1dbe 5bf0 debd
000003e0: f944 293e 1a2a 543d 6f4c f03d 0250 dabd
000003f0: c293 c6bd 6f0d b23d 78b9 873a 80b1 f03c
